…
r读取的，为了避免麻烦，也为了在测试的时候方便观察图片，所以style.jpg我们暂时放在了content中。下半部分是重点，我们需要写的代码，每次都是先从dataset.py和models开始写起，然后导入visualize.py，这个文件基本不会发生改变，然后同时写main.py和config.py，边写边扩展utils中的其他文件，例如main中用到的函数等等。 2.2 modelsPackedVGG.py这里我们主要是取已有的网络，得到中间层的输出models.named_parameters():返回的是一个生成器，每次返回一个参数的关键字和值models.state_dict():返回的是一个字典，记录了参数的关键字和值models.parameters():返回的是变量，没有名字，可以在requires_grad中用到models.features返回的是相对应的模型1234567891011121314151617181920212223242526272829In [7]: from torchvision.models import vgg16In [8]: models = vgg16(pretrained=True)In [9]: model = models.features[:1]In [10]: modelOut[10]: Sequential( (0): Conv2d(3, 64, kernel_size=(3, 3), stride=(1, 1), padding=(1, 1)))In [11]: models.parameters()Out[11]: &lt;generator object Module.parameters at 0x7f8fad26b3b8&gt;In [12]: models.named_parameters()Out[12]: &lt;generator object Module.named_parameters at 0x7f8f29e99d58&gt;In [13]: model.named_parameters()Out[13]: &lt;generator object Module.named_parameters at 0x7f8fad26b2b0&gt;In [14]: model.parameters()Out[14]: &lt;generator object Module.parameters at 0x7f8fad26b4c0&gt;In [15]: model.state_dict()Out[15]: OrderedDict([('0.weight', tensor([[[[-0.5537, 0.1427, 0.5290], [-0.5831, 0.3566, 0.7657], [-0.6902, -0.0480, 0.4841]], … torchvision.models import vgg16models = vgg16(pretarined = True)In [19]: modelsOut[19]: VGG( (features): Sequential( (0): Conv2d(3, 64, kernel_size=(3, 3), stride=(1, 1), padding=(1, 1)) (1): ReLU(inplace) (2): Conv2d(64, 64, kernel_size=(3, 3), stride=(1, 1), padding=(1, 1)) (3): ReLU(inplace) (4): MaxPool2d(kernel_size=2, stride=2, padding=0, dilation=1, ceil_mode=False) (5): Conv2d(64, 128, kernel_size=(3, 3), stride=(1, 1), padding=(1, 1)) (6): ReLU(inplace) (7): Conv2d(128, 128, kernel_size=(3, 3), stride=(1, 1), padding=(1, 1)) (8): ReLU(inplace) (9): MaxPool2d(kernel_size=2, stride=2, padding=0, dilation=1, ceil_mode=False) (10): Conv2d(128, 256, kernel_size=(3, 3), stride=(1, 1), padding=(1, 1)) (11): ReLU(inplace) (12): Conv2d(256, 256, kernel_size=(3, 3), stride=(1, 1), padding=(1, 1)) (13): ReLU(inplace) (14): Conv2d(256, 256, kernel_size=(3, 3), stride=(1, 1), padding=(1, 1)) (15): ReLU(inplace) (16): MaxPool2d(kernel_size=2, stride=2, padding=0, dilation=1, ceil_mode=False) (17): Conv2d(256, 512, kernel_size=(3, 3), stride=(1, 1), padding=(1, 1)) (18): ReLU(inplace) (19): Conv2d(512, 512, kernel_size=(3, 3), stride=(1, 1), padding=(1, 1)) (20): ReLU(inplace) (21): Conv2d(512, 512, kernel_size=(3, 3), stride=(1, 1), padding=(1, 1)) (22): ReLU(inplace) (23): MaxPool2d(kernel_size=2, stride=2, padding=0, dilation=1, ceil_mode=False) (24): Conv2d(512, 512, kernel_size=(3, 3), stride=(1, 1), padding=(1, 1)) (25): ReLU(inplace) (26): Conv2d(512, 512, kernel_size=(3, 3), stride=(1, 1), padding=(1, 1)) (27): ReLU(inplace) (28): Conv2d(512, 512, kernel_size=(3, 3), stride=(1, 1), padding=(1, 1)) (29): ReLU(inplace) (30): MaxPool2d(kernel_size=2, stride=2, padding=0, dilation=1, ceil_mode=False) ) (classifier): Sequential( (0): Linear(in_features=25088, out_features=4096, bias=True) (1): ReLU(inplace) (2): Dropout(p=0.5) (3): Linear(in_features=4096, out_features=4096, bias=True) (4): ReLU(inplace) (5): Dropout(p=0.5) (6): Linear(in_features=4096, out_features=1000, bias=True) ))In [20]: models.featuresOut[20]: Sequential( (0): Conv2d(3, 64, kernel_size=(3, 3), stride=(1, 1), padding=(1, 1)) (1): ReLU(inplace) (2): Conv2d(64, 64, kernel_size=(3, 3), stride=(1, 1), padding=(1, 1)) (3): ReLU(inplace) (4): MaxPool2d(kernel_size=2, stride=2, padding=0, dilation=1, ceil_mode=False) (5): Conv2d(64, 128, kernel_size=(3, 3), stride=(1, 1), padding=(1, 1)) (6): ReLU(inplace) (7): Conv2d(128, 128, kernel_size=(3, 3), stride=(1, 1), padding=(1, 1)) (8): ReLU(inplace) (9): MaxPool2d(kernel_size=2, stride=2, padding=0, dilation=1, ceil_mode=False) (10): Conv2d(128, 256, kernel_size=(3, 3), stride=(1, 1), padding=(1, 1)) (11): ReLU(inplace) (12): Conv2d(256, 256, kernel_size=(3, 3), stride=(1, 1), padding=(1, 1)) (13): ReLU(inplace) (14): Conv2d(256, 256, kernel_size=(3, 3), stride=(1, 1), padding=(1, 1)) (15): ReLU(inplace) (16): MaxPool2d(kernel_size=2, stride=2, padding=0, dilation=1, ceil_mode=False) (17): Conv2d(256, 512, kernel_size=(3, 3), stride=(1, 1), padding=(1, 1)) (18): ReLU(inplace) (19): Conv2d(512, 512, kernel_size=(3, 3), stride=(1, 1), padding=(1, 1)) (20): ReLU(inplace) (21): Conv2d(512, 512, kernel_size=(3, 3), stride=(1, 1), padding=(1, 1)) (22): ReLU(inplace) (23): MaxPool2d(kernel_size=2, stride=2, padding=0, dilation=1, ceil_mode=False) (24): Conv2d(512, 512, kernel_size=(3, 3), stride=(1, 1), padding=(1, 1)) (25): ReLU(inplace) (26): Conv2d(512, 512, kernel_size=(3, 3), stride=(1, 1), padding=(1, 1)) (27): ReLU(inplace) (28): Conv2d(512, 512, kernel_size=(3, 3), stride=(1, 1), padding=(1, 1)) (29): ReLU(inplace) (30): MaxPool2d(kernel_size=2, stride=2, padding=0, dilation=1, ceil_mode=False))In [21]: models.features[1]Out[21]: ReLU(inplace)# listIn [27]: models4 = models2[0:2]In [28]: models4Out[28]: Sequential( (0): Conv2d(3, 64, kernel_size=(3, 3), stride=(1, 1), padding=(1, 1)) (1): ReLU(inplace))In [32]: models4listOut[32]: [Conv2d(3, 64, kernel_size=(3, 3), stride=(1, 1), padding=(1, 1)), ReLU(inplace)]In [36]: models4list[1]Out[36]: ReLU(inplace)In [37]: models4list[1].named_parametersOut[37]: &lt;bound method Module.named_parameters of ReLU(inplace)&gt; sequencial是支持索引操作的list(module)会变成一个list，可以通过索引来获取层，注意，nn.
…
